ANN_model_deployed.onnx (onnx, 426790 bytes, 22 tensors)

n1.weight f4 [15]
0.9017574 0.82579035 0.8103436 0.8523726 0.8969394 0.89434487 0.85103875 0.87108284
0.83596843 0.8516636 0.90074664 0.9769136 0.94198227 0.89249104 0.9097151
00000000: 93d9 663f ff66 533f ae72 4f3f 1735 5a3f
00000010: d29d 653f c9f3 643f addd 593f 49ff 5e3f
00000020: 0702 563f a006 5a3f 5597 663f 0217 7a3f
00000030: c025 713f 4b7a 643f 17e3 683f

n1.bias f4 [15]
-0.039934464 0.008604094 -0.08080685 -0.018327368 -0.03191438 -0.044797182 -0.020642975 -0.093842946
-0.0030579546 -0.06074407 -0.008256238 0.00044968608 0.020255933 -0.077829935 0.003651343
00000000: 5292 23bd 30f8 0c3c 107e a5bd 4723 96bc
00000010: a7b8 02bd 407d 37bd 751b a9bc bb30 c0bd
00000020: f767 48bb c6ce 78bd 2c45 07bc d8c3 eb39
00000030: c5ef a53c 4d65 9fbd 5f4b 6f3b

n1.running_mean f4 [15]
8.209387 1332.8851 163.4143 829.697 102.32419 621.6466 75.75052 150.88219
18.68214 104.0911 12.771816 11.547406 9.320077 6.873557 122.26894
00000000: a659 0341 539c a644 106a 2343 9c6c 4f44
00000010: fca5 cc42 6269 1b44 4480 9742 d7e1 1643
00000020: 0675 9541 a52e d042 5c59 4c41 2dc2 3841
00000030: 091f 1541 2ef4 db40 b389 f442

n1.running_var f4 [15]
1.5480927 38680.91 157.2485 15209.914 186.04068 14588.183 101.63157 391.6523
6.6376953 599.1582 4.5802903 1.5565635 0.9738392 1.4362017 1080.3535
00000000: e727 c63f e918 1747 9e3f 1d43 a8a7 6d46
00000010: 6a0a 3a43 bbf0 6346 5d43 cb42 7fd3 c343
00000020: 0068 d440 20ca 1544 bd91 9240 793d c73f
00000030: 874d 793f 75d5 b73f 500b 8744

d1.0.weight f4 [252, 15]
-0.15977287 -0.046741582 -0.1385282 0.035250846 -0.124973714 0.18136619 0.13127218 0.05274204
-0.09327861 -0.13292791 -0.00027629884 -0.104882315 0.14807706 -0.21426961 0.32712698 -0.11116917
0.12965804 -0.09683666 0.053574793 0.0010211612 -0.028097585 -0.0695191 0.06553923 -0.06855904
0.08130022 -0.25034413 0.17198999 0.090517096 0.06590451 -0.014748597 0.25138143 0.26465774
-0.07895482 -0.11674758 -0.10309128 -0.13647449 0.09651374 -0.07497033 -0.13751526 0.237284
0.22561158 0.06691499 0.049761787 -0.0008448287 0.118751235 -0.16572799 -0.14871307 0.11277552
0.33536455 -0.06708506 -0.09431952 0.07335656 -0.10405593 -0.08844352 0.18917501 0.02103532
-0.07053315 -0.09972786 -0.057631824 -0.250329 -0.033358295 0.06689646 -0.12707056 -0.0715398
0.07873868 0.18943726 -0.026666507 -0.13810557 0.071919404 -0.076596044 -0.0719195 0.15768287
0.0069866106 0.08530903 -0.013146472 -0.0978001 0.123849906 -0.23825617 -0.10295016 -0.041415192
-0.10677217 -0.06762971 0.15013915 0.20951112 -0.069586344 0.14409703 -0.2342897 -0.11626285
0.13292302 -0.023551544 -0.19214082 -0.0519167 -0.06961522 0.32973897 0.21160106 0.33641297
-0.10301407 -0.17638355 -0.10935055 0.09240059 -0.0022105882 -0.16522719 0.17003031 -0.08711027
-0.21441123 0.12698212 -0.10862625 0.12293083 0.13752474 0.081408724 0.09166923 -0.15041934
-0.0814881 -0.05736756 -0.16472608 0.041830715 0.110359736 -0.091288455 0.18720117 -0.13076992
0.101187386 -0.027128354 -0.23499411 -0.08802135 0.10528885 0.16989972 -0.1551533 -0.056415036
-0.2389072 0.12392607 0.19347858 0.026356101 -0.18821721 0.12576795 0.21793354 -0.0552639
-0.019996151 0.1288144 0.011760752 -0.077309884 -0.25583243 -0.14807966 -0.018846642 -0.0494679
0.28542703 0.06365249 -0.054497533 -0.22935338 -0.2553733 0.17183028 0.18892461 -0.037718963
-0.1839675 0.062411927 0.20793064 -0.19143483 -0.13653466 0.017611446 -0.14082396 -0.24868314
0.18096517 -0.15872292 -0.0876306 -0.07174877 0.2119484 0.05840981 0.07535876 -0.1646805
0.19671185 0.044856705 -0.17624368 -0.005159618 -0.21324743 -0.057584077 0.13749543 -0.14734921
0.26909217 0.10729847 0.03543246 0.034934666 0.0635948 0.002436061 -0.09776159 0.14685285
0.049055174 0.15920426 0.035943575 0.3206456 0.23561311 -0.23317853 0.02862122 -0.124939024
0.09344063 -0.031723965 0.0057116766 -0.2623585 0.14907773 0.26256216 0.011717475 -0.2127814
-0.17848714 -0.019805245 0.0064229653 0.020143049 0.05817289 0.14131866 -0.064972684 0.017786318
-0.087226145 0.29292893 0.07102371 -0.08188853 0.16282699 0.087329686 0.082552075 -0.08858544
0.08663539 0.02312725 -0.083104916 0.0065598437 0.06493311 -0.11949611 0.11225157 -0.09970443
-0.17654018 -0.18435505 -0.1649472 0.13859135 0.13079156 0.2120756 0.24783497 0.057128564
0.12347729 -0.032820445 0.24764536 -0.072043344 -0.04794526 -0.09009924 -0.15368037 -0.22143237
-0.02010942 0.18328762 -0.09696737 -0.24215943 -0.029175434 0.20847468 0.032948263 -0.07679315
-0.10431548 0.29345444 -0.18488653 0.22677031 0.19289145 0.25887668 -0.11351418 -0.13952689
00000000: 809b 23be 1a74 3fbd 56da 0dbe 3163 103d
00000010: 38f2 ffbd 0fb8 393e 376c 063e 0a08 583d
00000020: db08 bfbd 411e 08be 34dc 90b9 8acc d6bd
00000030: 83a1 173e 7e69 5bbe 307d a73e a9ac e3bd
00000040: 14c5 043e 4c52 c6bd 3e71 5b3d 7cd8 853a
00000050: e82c e6bc 0860 8ebd 6f39 863d af68 8cbd
00000060: bb80 a63d 1b2d 80be 251e 303e 0761 b93d
00000070: f2f8 863d 19a4 71bc 11b5 803e 3881 873e
00000080: 11b3 a1bd 5b19 efbd 8521 d3bd f8bf 0bbe
00000090: ffa8 c53d 0b8a 99bd cdd0 0cbe 94fa 723e
000000a0: b906 673e ba0a 893d 04d3 4b3d 7f77 5dba
000000b0: d933 f33d 99b4 29be 3d48 18be daf6 e63d
000000c0: e7b4 ab3e e463 89bd 982a c1bd f73b 963d
000000d0: 471b d5bd e021 b5bd 18b7 413e 4352 ac3c
000000e0: af73 90bd 1f3e ccbd 590f 6cbd 1f2b 80be
000000f0: b5a2 08bd 0301 893d c91e 02be 7583 92bd
00000100: bf41 a13d d7fb 413e b873 dabc 8c6b 0dbe
00000110: 7b4a 933d 63de 9cbd 884a 93bd 9e77 213e
00000120: f0ef e43b 80b6 ae3d 4d64 57bc 6b4b c8bd
00000130: 05a5 fd3d 6df9 73be 89d7 d2bd faa2 29bd
00000140: 5eab dabd 7281 8abd 14be 193e 158a 563e
00000150: 4983 8ebd 2c8e 133e a4e9 6fbe 381b eebd
00000160: f91c 083e 2bef c0bc 90c0 44be 9ba6 54bd
00000170: 6d92 8ebd 8cd3 a83e f3ad 583e 523e ac3e
00000180: 0af9 d2bd e49d 34be 2ef3 dfbd 853c bd3d
00000190: 84df 10bb 5131 29be 6d1c 2e3e df66 b2bd
000001a0: 9e8e 5bbe 9a07 023e 7077 debd 29c3 fb3d
000001b0: 49d3 0c3e 9eb9 a63d 14bd bb3d 8707 1abe
000001c0: 3ce3 a6bd 3ffa 6abd f4ad 28be af56 2b3d
000001d0: 4904 e23d 71f5 babd aab1 3f3e 8de8 05be
000001e0: 553b cf3d 483c debc 4ca2 70be 8a44 b4bd
000001f0: aea1 d73d 31fa 2d3e 82e0 1ebe 7413 67bd
00000200: 17a4 74be f4cc fd3d 401f 463e c0e8 d73c
00000210: 03bc 40be 50c9 003e f829 5f3e 665c 62bd
00000220: f8ce a3bc ece7 033e 2bb0 403c a554 9ebd
00000230: 78fc 82be 32a2 17be 4664 9abc da9e 4abd
00000240: 7e23 923e 3d5c 823d ce38 5fbd 9ddb 6abe
00000250: 4ac0 82be 47f4 2f3e 7475 413e 337f 1abd
00000260: fa61 3cbe a6a3 7f3d c5eb 543e 7e07 44be
00000270: becf 0bbe e145 903c 2834 10be cba6 7ebe
00000280: ef4e 393e 4388 22be ac77 b3bd 05f1 92bd
00000290: 0009 593e 203f 6f3d b255 9a3d 01a2 28be
000002a0: d56e 493e aabb 373d 3979 34be 0312 a9bb
000002b0: 895d 5abe 48dd 6bbd 9acb 0c3e b6e2 16be
000002c0: 73c6 893e 4dbf db3d a121 113d a717 0f3d
000002d0: fe3d 823d 52a6 1f3b 3a37 c8bd 9860 163e
000002e0: 14ee 483d 7106 233e 9239 133d a92b a43e
000002f0: 9044 713e 5ac6 6ebe 0c77 ea3c 08e0 ffbd
00000300: cd5d bf3d fdf0 01bd 0429 bb3b da53 86be
00000310: d5a7 183e 8c6e 863e a7fa 3f3c 5ee3 59be
00000320: 55c5 36be 9c3e a2bc bd77 d23b 0903 a53c
00000330: b246 6e3d d7b5 103e 6610 85bd 9db4 913c
00000340: 9fa3 b2bd c8fa 953e e174 913d 2cb5 a7bd
00000350: 1ebc 263e e8d9 b23d 1011 a93d 486c b5bd
00000360: e56d b13d 5c75 bd3c e932 aabd f5f3 d63b
00000370: a6fb 843d 60ba f4bd 27e4 e53d d631 ccbd
00000380: f3c6 34be 92c7 3cbe ebe7 28be e4ea 0d3e
00000390: 39ee 053e 592a 593e 73c8 7d3e a4ff 693d
000003a0: a9e1 fc3d bb6e 06bd bf96 7d3e 768b 93bd
000003b0: 4062 44bd f385 b8bd 635e 1dbe 2bbf 62be
000003c0: 83bc a4bc c0af 3b3e d496 c6bd a4f8 77be
000003d0: 5201 efbc 637a 553e c2f4 063d ba45 9dbd
000003e0: 5ba3 d5bd a93f 963e e552 3dbe 7a36 683e
000003f0: 5685 453e 7c8b 843e 1f7a e8bd 23e0 0ebe

d1.0.bias f4 [252]
-0.22119367 -0.08315109 -0.2702046 -0.09488468 0.05394305 0.047066215 -0.2674338 0.15278511
-0.28719524 0.029287191 0.09199681 -0.09487898 -0.2262823 0.09339569 0.09961617 -0.2664494
-0.23911609 0.13991095 -0.32276252 0.012074454 0.1689691 -0.24314108 -0.22393717 -0.15583159
-0.12723276 0.091350615 0.05393189 0.003686592 0.060462747 0.09020174 -0.16011983 -0.21062057
0.039606646 -0.08018656 -0.0009963559 -0.23154134 0.050922126 0.056122083 -0.2370973 -0.14544798
0.06915341 0.13741417 -0.02442695 0.1684127 -0.09188606 -0.0505823 0.039682936 -0.24034065
-0.10653589 -0.27208173 -0.11708833 -0.25803414 0.100896575 -0.27062932 -0.10260951 -0.07443049
0.15140279 -0.14652653 -0.011227175 -0.0136068985 -0.21864194 -0.12661912 0.05500796 -0.029119406
0.19395824 -0.2580384 0.10203265 -0.09926852 -0.05655203 -0.17859861 0.019113738 0.110572785
-0.07745791 0.0058603515 -0.27009448 -0.009718547 -0.13824666 0.026610946 -0.16015632 0.017238809
0.0866017 -0.1540392 -0.015941586 0.12252775 0.13784204 0.0379848 -0.09390579 -0.15266514
0.09628881 0.0065929624 -0.11900243 0.042750273 0.14165077 -0.33716962 -0.2066966 -0.039487667
0.08346456 -0.05383369 -0.26837665 -0.02457021 -0.35098922 -0.22399883 -0.14608026 -0.24060456
0.1347533 -0.11628324 -0.07329755 0.11867775 0.07421022 0.068375885 -0.26770267 0.04585036
-0.29442558 -0.137731 -0.25118503 -0.13248643 0.15711863 0.03984858 0.16091086 0.12402171
0.05676354 -0.007939017 -0.27354264 0.031247806 -0.05024222 0.10612534 -0.15320452 -0.03810772
-0.19451112 0.045637093 0.11940735 -0.001179922 0.1797351 0.105003014 0.0004784095 -0.06638498
-0.14462501 -0.08195211 -0.17830242 0.019873647 0.048910055 -0.08534627 0.040393762 0.054053843
-0.057965655 -0.11424045 -0.26554537 0.08471961 -0.106024526 -0.11479846 -0.20810185 -0.04552427
-0.19424081 -0.031876802 -0.22534418 0.09616765 -0.22435844 -0.30155316 -0.046066575 -0.23250426
0.15566526 0.13079432 -0.2189214 0.039951943 -0.3233778 -0.24616803 -0.18819837 -0.30608913
-0.24988046 -0.15966335 0.12760222 -0.2815602 -0.23820922 -0.0772084 0.1484781 -0.116280906
-0.30480143 0.108975396 -0.22322007 0.17947778 -0.04358981 -0.22002432 0.015165361 -0.24709219
-0.16718899 -0.31647417 -0.27891076 -0.1268657 0.008278288 -0.04368963 0.018612394 -0.012644047
0.13145715 -0.15519106 0.15708753 -0.16302694 0.09180327 -0.22727457 -0.17090924 -0.25025988
-0.035054494 0.038423248 0.072528034 -0.34298852 -0.02593417 -0.2667741 -0.18460412 -0.097982354
-0.12108621 0.15063532 -0.18591303 0.23537344 -0.2959797 -0.26274082 -0.29677835 -0.1879785
-0.16966686 -0.18357687 -0.1960191 -0.061309658 -0.17697965 -0.10881419 0.018176334 0.104836285
0.062569015 -0.25710377 -0.249191 -0.03683845 -0.16540925 -0.19449961 0.1254574 0.08288312
-0.17788792 -0.24490878 -0.21116321 0.08995948 -0.02023476 -0.05991456 -0.15392461 -0.097906284
0.15188618 -0.1827905 -0.07638836 -0.1830067 0.087797806 -0.18672997 0.08462838 -0.1548896
0.13912791 -0.08992698 -0.29000834 -0.12816595
00000000: 9880 62be 1e4b aabd 4258 8abe e652 c2bd
00000010: 63f3 5c3d 81c8 403d 15ed 88be b373 1c3e
00000020: 410b 93be b1eb ef3c d368 bc3d e94f c2bd
00000030: 8cb6 67be 3d46 bf3d 9003 cc3d 0e6c 88be
00000040: d9da 74be d144 0f3e 2141 a5be eed3 453c
00000050: 3c06 2d3e faf9 78be c94f 65be 5192 1fbe
00000060: 4e49 02be 0816 bb3d afe7 5c3d c09a 713b
00000070: c9a7 773d b1bb b83d 74f6 23be ebac 57be
00000080: 943a 223d da38 a4bd 2898 82ba 2c19 6dbe
00000090: b893 503d 45e0 653d a2c9 72be 51f0 14be
000000a0: 4ea0 8d3d 4db6 0c3e 071b c8bc 6174 2c3e
000000b0: c22e bcbd 632f 4fbd 938a 223d dc1b 76be
000000c0: 7d2f dabd 4c4e 8bbe 02cc efbd 0d1d 84be
000000d0: dda2 ce3d ed8f 8abe ef24 d2bd 036f 98bd
000000e0: 5509 1b3e 0d0b 16be 2ff2 37bc 78ef 5ebc
000000f0: ace3 5fbe 71a8 01be 0750 613d d28b eebc
00000100: fd9c 463e 9c1d 84be 7ef6 d03d 4b4d cbbd
00000110: 1aa3 67bd 8ee2 36be 6a94 9c3c fc73 e23d
00000120: 41a2 9ebd 3108 c03b d349 8abe 8a3a 1fbc
00000130: 8890 0dbe 33ff d93c 0500 24be 6738 8d3c
00000140: 3b5c b13d 74bc 1dbe ee97 82bc d4ef fa3d
00000150: 7726 0d3e f395 1b3d ae51 c0bd 4054 1cbe
00000160: 1133 c53d c709 d83b 8cb7 f3bd e91a 2f3d
00000170: e60c 113e 7fa1 acbe 46a8 53be d2bd 21bd
00000180: 78ef aa3d b780 5cbd aa68 89be 7747 c9bc
00000190: dcb4 b3be f35f 65be 1096 15be 0b61 76be
000001a0: c5fc 093e e825 eebd 071d 96bd 520d f33d
000001b0: 87fb 973d a808 8c3d 5310 89be 96cd 3b3d
000001c0: f3be 96be 5b09 0dbe 539b 80be 86aa 07be
000001d0: b5e3 203e 4438 233d d1c5 243e 18ff fd3d
000001e0: e380 683d a712 02bc c80d 8cbe 66fb ff3c
000001f0: c9ca 4dbd 3e58 d93d a5e1 1cbe d716 1cbd
00000200: ec2d 47be f6ed 3a3d d78b f43d 9da7 9aba
00000210: 7a0c 383e d20b d73d 09d3 fa39 d9f4 87bd
00000220: 9418 14be 82d6 a7bd e994 36be 0fce a23c
00000230: e955 483d 06ca aebd ee73 253d 9067 5d3d
00000240: 656d 6dbd e6f6 e9bd 90f5 87be 7a81 ad3d
00000250: 6323 d9bd 741b ebbd a718 55be a877 3abd
00000260: 10e7 46be 4091 02bd a0c0 66be 8bf3 c43d
00000270: 38be 65be 2d65 9abe 4eb0 3cbd 9915 6ebe
00000280: b766 1f3e f2ee 053e ee2c 60be a6a4 233d
00000290: c691 a5be 7913 7cbe 13b7 40be b7b7 9cbe
000002a0: aae0 7fbe ca7e 23be 28aa 023e a928 90be
000002b0: 1eed 73be 701f 9ebd a50a 183e af24 eebd
000002c0: ef0e 9cbe 7e2e df3d cd93 64be 06c9 373e
000002d0: 3b8b 32bd 0e4e 61be 2278 783c bc05 7dbe
000002e0: 9733 2bbe e708 a2be 64cd 8ebe 15e9 01be
000002f0: a8a1 073c e6f3 32bd 0579 983c fa28 4fbc
00000300: b49c 063e 68ea 1ebe 8edb 203e 89f0 26be
00000310: 5a03 bc3d aaba 68be d502 2fbe 1022 80be
00000320: 4d95 0fbd b261 1d3d 9489 943d 319c afbe
00000330: e573 d4bc 9d96 88be dd08 3dbe f9aa c8bd
00000340: 0cfc f7bd 2540 1a3e fc5f 3ebe bc05 713e
00000350: a78a 97be f785 86be 55f3 97be 707d 40be
00000360: 26bd 2dbe 93fb 3bbe 3bb9 48be d61f 7bbd
00000370: 273a 35be f9d9 debd 89e6 943c 68b4 d63d
00000380: 2f24 803d 1ba3 83be ed2b 7fbe eae3 16bd
00000390: 0b61 29be e82a 47be e877 003e a0be a93d
000003a0: 4028 36be 5ec9 7abe 2b3b 58be ad3c b83d
000003b0: 5ec3 a5bc f868 75bd 6a9e 1dbe 1783 c8bd
000003c0: 0d88 1b3e 6f2d 3bbe 8071 9cbd 1c66 3bbe
000003d0: 56cf b33d 2436 3fbe a551 ad3d 619b 1ebe
000003e0: 8c77 0e3e a32b b8bd f97b 94be ef3d 03be

d1.2.weight f4 [158, 252]
-0.00418982 0.038129043 0.007367319 -0.008343389 -0.027609985 0.059540816 -0.026961738 -0.017449006
-0.05286508 0.0046308334 0.005279184 0.02476731 -0.038369622 0.015308124 -0.021763729 -0.0036997928
0.06505795 -0.029477196 -0.053814992 0.020176155 0.056230243 0.046638433 0.0042207683 0.0030345041
-0.052758288 -0.05602261 -0.073295966 -0.011229139 0.029044962 -0.0509364 0.060363755 -0.13376708
-0.057434943 -0.054646183 0.00890386 -0.09688079 -0.019022785 -0.020297542 -0.003633499 0.028433511
0.030453997 0.0914598 0.0090223905 -0.013684835 0.018843533 -0.0042390423 -0.029276669 0.003926418
-0.04952436 -0.017142735 -0.06597799 0.06698417 0.022994325 0.0024007687 -0.0060975365 0.021174992
-0.02189526 0.0316678 0.037828553 0.020062756 0.047731124 -0.0762615 -0.07160463 -0.022502845
0.025036644 -0.059948105 -0.029581366 0.016377417 0.05249295 -0.04444025 -0.03367145 -0.0071730213
-0.007635553 -0.013956475 -0.05626102 0.06857182 0.078100204 0.021065224 -0.009252942 0.008718936
0.011544198 -0.027345605 0.017475042 0.012733423 0.020339064 0.0022982222 -0.023364093 -0.059993707
-0.0036292605 -0.019719603 0.009061318 -0.02029767 0.00030023686 -0.06454414 0.027765641 0.0042990022
-0.07532159 -0.03831257 0.055832915 0.024444528 0.004908717 -0.03236177 -0.10584425 0.004096409
-0.04339747 0.04246179 -0.05092438 0.03551165 -0.02940898 0.043825258 0.054590594 -0.03549733
-0.01462485 0.0501944 -0.0056164116 0.020757766 -0.051995035 0.022492375 -0.039566107 0.0035736288
0.0014149544 -0.013359062 -0.010470876 0.06987821 0.006071063 -0.07583975 0.011402719 0.035439473
0.018477049 0.028304385 -0.009131273 0.01826373 -0.03448399 -8.47193e-05 0.06402957 0.048387203
0.03713301 0.038719557 -0.03710746 0.05747437 0.05628298 -0.0014861231 -0.072164156 0.06557793
0.025136564 -0.01697548 -0.04333149 -0.047979627 -0.014701251 -0.017612416 0.048946247 0.013915102
-0.028279942 0.06293786 0.002999792 -0.0352934 -0.012140655 -0.05084277 -0.055599283 0.0038658162
0.091965266 -0.09288022 0.010590293 0.041886102 -0.042485636 -0.028613327 0.016348038 0.05642042
0.0052628573 0.0021189337 0.061299194 -0.02795965 0.08437439 0.021856481 0.012327119 -0.09216481
-0.022249576 0.0003109801 -0.003847986 0.022108437 -0.032042485 -0.14230141 0.01766438 0.053457562
0.07194912 -0.04155442 0.03406412 0.049801365 0.071295045 -0.05026547 0.041070502 0.010457078
0.009597807 0.02246036 -0.027469197 -0.024631828 -0.06293888 0.113337226 -0.027395623 0.055356693
-0.036520656 -0.082593024 -0.08622522 0.039509486 -0.073276095 -0.008100966 0.014687852 -0.05550475
-0.00020553556 -0.05363747 -0.033883978 0.0145477755 -0.038375724 0.015677497 0.042032495 -0.020348966
0.027999092 0.02904518 0.014622439 0.068405055 -0.0032881764 -0.08521511 -0.0037541164 -0.009249957
0.071266554 0.03490965 -0.12972936 -0.0047347015 0.028901119 -0.0013959318 0.043450087 -0.037811562
0.063777335 0.033787232 0.069951594 -0.006587041 0.033087116 -0.010641906 0.026511872 0.007064853
0.040699836 0.034359496 -0.03974197 -0.054399736 -0.018549204 0.0127678765 -0.010718484 0.06979793
0.007253423 -0.021260316 0.065916695 0.02109085 0.010131227 -0.071643 0.020275386 0.015090243
00000000: c24a 89bb 332d 1c3d 8d69 f13b b6b2 08bc
00000010: 562e e2bc 12e1 733d ddde dcbc 38f1 8ebc
00000020: 0e89 58bd 3fbe 973b 01fd ac3b d0e4 ca3c
00000030: 7729 1dbd edce 7a3c d949 b2bc 3978 72bb
00000040: 1a3d 853d 297a f1bc 1c6d 5cbd 7748 a53c
00000050: af51 663d f107 3f3d 5f4e 8a3b 88de 463b
00000060: 1319 58bd f777 65bd 321c 96bd 6cfa 37bc
00000070: b3ef ed3c b0a2 50bd fc3f 773d 3dfa 08be
00000080: e740 6bbd add4 5fbd 7fe1 113c 7069 c6bd
00000090: acd5 9bbc 0847 a6bc ff1f 6ebb 65ed e83c
000000a0: a97a f93c 474f bb3d a6d2 133c 5c36 60bc
000000b0: c15d 9a3c aae7 8abb a0d5 efbc 2ea9 803b
000000c0: 0eda 4abd ec6e 8cbc 781f 87bd ff2e 893d
000000d0: 985e bc3c 3756 1d3b d8cd c7bb 2d77 ad3c
000000e0: b05d b3bc 18b6 013d 1df2 1a3d a65a a43c
000000f0: b681 433d fd2e 9cbd 73a5 92bd e357 b8bc
00000100: a619 cd3c 258c 75bd 9f54 f2bc ef29 863c
00000110: d902 573d fb06 36bd 13eb 09bd aa0b ebbb
00000120: a933 fabb b3a9 64bc f571 66bd 626f 8c3d
00000130: 00f3 9f3d fa90 ac3c a799 17bc ded9 0e3c
00000140: e023 3d3c e403 e0bc d227 8f3c d99f 503c
00000150: 1c9e a63c c59d 163b 0e66 bfbc f6bb 75bd
00000160: e3d8 6dbb 018b a1bc ec75 143c 4d47 a6bc
00000170: 1c69 9d39 b82f 84bd c574 e33c a5de 8c3b
00000180: 3542 9abd a4ed 1cbd 0eb1 643d e43f c83c
00000190: 4dd9 a03b c68d 04bd dfc4 d8bd 2b3b 863b
000001a0: 8cc1 31bd 6aec 2d3d 1596 50bd aa74 113d
000001b0: 1aeb f0bc 1d82 333d 639a 5f3d a665 11bd
000001c0: 119d 6fbc a598 4d3d e009 b8bb 310c aa3c
000001d0: bff8 54bd ee41 b83c 1210 22bd 8b33 6a3b
000001e0: fe75 b93a f8df 5abc 098e 2bbc 4f1c 8f3d
000001f0: c5ef c63b df51 9bbd 78d2 3a3c fb28 113d
00000200: 2e5d 973c 99de e73c 569b 15bc d19d 953c
00000210: 163f 0dbd 54ab b1b8 ef21 833d a931 463d
00000220: c818 183d 6698 1e3d fefd 17bd 3f6a 6b3d
00000230: fb88 663d 04ca c2ba cdca 93bd b94d 863d
00000240: 32eb cd3c 2910 8bbc 5c7c 31bd 4986 44bd
00000250: 84dd 70bc ea47 90bc dc7b 483d 2bfc 633c
00000260: 56ab e7bc 91e5 803d 2998 443b d08f 10bd
00000270: 99e9 46bc 8240 50bd 13bc 63bd a259 7d3b
00000280: 4958 bc3d fc37 bebd e982 2d3c c390 2b3d
00000290: 6b05 2ebd 7f66 eabc 52ec 853c 1919 673d
000002a0: 0c74 ac3b cfdd 0a3b dd14 7b3d a30b e5bc
000002b0: 7bcc ac3d 5d0c b33c aff7 493c e7c0 bcbd
000002c0: be44 b6bc 0b0b a339 7e2e 7cbb c11c b53c
000002d0: fb3e 03bd 76b7 11be e4b4 903c 51f6 5a3d
000002e0: 0f5a 933d f834 2abd d286 0b3d 84fc 4b3d
000002f0: 2303 923d 2ae3 4dbd 8b39 283d 2a54 2b3c
00000300: 1f40 1d3c cafe b73c 1507 e1bc b0c8 c9bc
00000310: 19e6 80bd 591d e83d c96c e0bc b3bd 623d
00000320: af96 15bd 8826 a9bd d996 b0bd b3d4 213d
00000330: c711 96bd eab9 04bc 51a5 703c f358 63bd
00000340: 0885 57b9 f7b2 5bbd edc9 0abd cb59 6e3c
00000350: dd2f 1dbd 186e 803c 442a 2c3d e0b2 a6bc
00000360: 5a5e e53c 28f0 ed3c f492 6f3c f317 8c3d
00000370: 727e 57bb 4285 aebd 9f07 76bb 228d 17bc
00000380: 33f4 913d 6cfd 0e3d c6d7 04be 8e25 9bbb
00000390: 0ac2 ec3c b3f7 b6ba b8f8 313d 4ce0 1abd
000003a0: b19d 823d 7b64 0a3d c842 8f3d 1bd8 d7bb
000003b0: 5b86 073d 645b 2ebc 6d2f d93c 4880 e73b
000003c0: dfb4 263d 8bbc 0c3d 7ac8 22bd 42d2 5ebd
000003d0: 80f4 97bc 5b30 513c 959c 2fbc 38f2 8e3d
000003e0: 1fae ed3b 1d2a aebc 55ff 863d b8c6 ac3c
000003f0: 72fd 253c 91b9 92bd 9118 a63c 113d 773c

d1.2.bias f4 [158]
0.03365924 -0.010254732 0.01830273 -0.07878431 0.0069884136 0.081659764 -0.017709302 0.026113207
0.0427384 0.011489456 -0.018663123 0.035362724 0.094420396 0.023898823 0.022684159 0.05269421
0.009969908 0.04723011 0.04063003 0.047984224 -0.0024153502 0.041336775 0.057378702 -0.013315963
-0.06208385 0.11909031 0.06934101 -0.010538722 0.030136595 0.055125885 0.0298339 0.018280456
-0.031680174 0.0622079 0.005652684 0.01131316 0.007285365 0.04284499 -0.06935108 -0.021286756
0.024501253 0.06546369 -0.098572664 0.0050078556 0.1127067 0.04263614 0.081059106 -0.0831219
-0.02061936 -0.052048586 -0.018857025 0.03416452 -0.05719746 0.0006176663 -0.07939099 -0.003989149
0.008505395 0.04473397 -0.0060603875 0.06109195 -0.021972382 0.011285921 -0.022340955 0.07278237
-0.014873007 -0.032023158 -0.021640887 -0.0053519243 -0.077673554 -0.004543991 -0.045522533 0.016785866
-0.09145753 -0.034235694 0.012554455 -0.0090209 0.04167534 -0.054427493 0.050536785 0.012774464
-0.015916266 0.07651813 -0.018840127 -0.0017015584 -0.009776585 0.08452719 -0.0822599 -0.021162314
-0.0013323013 0.005549285 -0.015146518 0.0040509123 0.06192506 0.018479114 -0.039212994 0.03233416
0.01051238 -0.02533362 -0.08172234 0.019465692 -0.005571747 0.07583532 -0.09003217 0.035943188
-0.007709762 0.07322841 0.047718447 0.018202368 0.04082479 -0.08548217 0.037476223 0.052247465
0.016232021 0.09976909 -0.026452456 0.053358242 -0.031045292 -0.012712123 0.014893828 0.049685206
0.06147558 -0.021525271 0.032502595 -0.06437165 0.028911002 0.0027951223 0.046461556 0.08253332
0.0039217253 -0.0029279548 -0.0020708053 0.0233443 0.05068817 0.0057316944 0.006504597 0.05926204
-0.007196992 0.006741129 0.032175716 0.052881233 0.021648193 0.028703101 -0.016343053 -0.04421999
0.056153383 0.04389671 -0.0024497802 -0.017098654 0.0017028549 -0.007999191 0.013420671 0.030333005
-0.0327827 -0.019230824 -0.05942371 0.021757642 -0.022908712 -0.004381159
00000000: 45de 093d 7703 28bc 9bef 953c ab59 a1bd
00000010: 10ff e43b 3c3d a73d 1913 91bc 5deb d53c
00000020: 760e 2f3d 453e 3c3c 68e3 98bc 81d8 103d
00000030: 7b5f c13d 77c7 c33c 21d4 b93c e2d5 573d
00000040: d358 233c 5c74 413d ad6b 263d 1b8b 443d
00000050: da4a 1ebb c050 293d ee05 6b3d 322b 5abc
00000060: a34b 7ebd 9fe5 f33d a902 8e3d 9baa 2cbc
00000070: 05e1 f63c aecb 613d 3966 f43c e5c0 953c
00000080: 12c3 01bd b6cd 7e3d 263a b93b d55a 393c
00000090: 12ba ee3b 3a7e 2f3d f007 8ebd 9061 aebc
000000a0: dab6 c83c d411 863d 77e0 c9bd f018 a43b
000000b0: c5d2 e63d 3ca3 2e3d 5102 a63d d13b aabd
000000c0: efe9 a8bc e630 55bd 0c7a 9abc 19f0 0b3d
000000d0: e247 6abd e2ea 213a be97 a2bd 68b7 82bb
000000e0: 365a 0b3c f83a 373d 3796 c6bb 8d3b 7a3d
000000f0: 6dff b3bc 95e8 383c 6104 b7bc ec0e 953d
00000100: eaad 73bc b72a 03bd 3b48 b1bc 325f afbb
00000110: 5013 9fbd c2e5 94bb d675 3abd 8382 893c
00000120: 164e bbbd ba3a 0cbd 33b1 4d3c 66cc 13bc
00000130: c3b3 2a3d 5def 5ebd a9ff 4e3d fc4b 513c
00000140: d462 82bc 8ab5 9c3d 9c56 9abc d306 dfba
00000150: f82d 20bc 971c ad3d e177 a8bd 975c adbc
00000160: 9da0 aeba c7d6 b53b 1a29 78bc 84bd 843b
00000170: 22a5 7d3d 8361 973c ce9d 20bd d370 043d
00000180: 1e3c 2c3c 7488 cfbc 0b5e a7bd 8476 9f3c
00000190: 3493 b6bb 8c4f 9b3d c962 b8bd 2a39 133d
000001a0: 2ca2 fcbb c7f8 953d 6b74 433d 221d 953c
000001b0: e537 273d 4711 afbd ab80 193d 7001 563d
000001c0: 04f9 843c bd53 cc3d d2b2 d8bc 2c8e 5a3d
000001d0: b252 febc 8246 50bc 3e05 743c b782 4b3d
000001e0: d1cd 7b3d c455 b0bc 7121 053d 49d5 83bd
000001f0: c4d6 ec3c 5f2e 373b 794e 3e3d 3b07 a93d
00000200: d181 803b eee2 3fbb 59b6 07bb 8c3c bf3c
00000210: 669e 4f3d f0d0 bb3b 8424 d53b c1bc 723d
00000220: bfd4 ebbb b0e4 dc3b afca 033d fe99 583d
00000230: 8d57 b13c c422 eb3c dee1 85bc 0520 35bd
00000240: 1701 663d 09cd 333d 7e8c 20bb 7a12 8cbc
00000250: 5432 df3a 0a0f 03bc 60e2 5b3c ec7c f83c
00000260: 2747 06bd f689 9dbc 4766 73bd 153d b23c
00000270: 0dab bbbc d38f 8fbb

d1.4.weight f4 [68, 158]
-0.05370946 -0.01584993 -0.051764693 -0.030477874 -0.077349134 0.051866017 -0.02014434 0.06786042
0.03161624 -0.0797795 0.084411986 -0.0056940196 0.048240956 -0.060764935 0.03900222 -0.046779152
-0.021049598 -0.04562921 -0.039702296 -0.032576334 -0.072849244 0.082801186 -0.074468456 0.029589042
0.015338266 0.03119255 -0.048655435 0.033980753 0.031138044 0.00731471 0.04076755 -0.012898917
-0.011091965 0.028963204 0.016310524 0.031144053 0.03850814 0.059427183 0.025215494 0.042114675
-0.007860485 -0.04998808 -0.065053806 -0.018363407 0.0409034 -0.06592345 -0.03794701 0.041727744
0.0006991346 0.044683665 0.06578518 0.0053236852 0.029118858 -0.034017354 0.06554615 0.046296027
0.055369236 0.04607479 0.010007136 0.047936134 0.059665658 0.06297777 0.013179136 0.052551605
0.058621116 0.017052894 -0.033496153 -0.02827662 -0.024275199 0.07986868 0.047572803 -0.023557287
-0.059470907 -0.00695963 -0.056809273 -0.028630551 0.0036077602 -0.068502635 -0.05333649 -0.050667215
-0.042994082 0.04494755 0.037690867 0.0540225 -0.03953932 0.03778264 -0.075799994 0.035489064
0.047325272 0.0053607095 -0.023140715 0.08053783 0.0465931 0.044456944 -0.026603367 -0.026615463
-0.0012069541 0.011255111 -0.031879425 0.008949171 -0.03662041 -0.032392457 -0.054283045 -0.01714022
-0.029650457 -0.0063758134 0.023083972 0.04135812 0.019813834 -0.035396017 -0.054307852 -0.044517547
0.09161191 -0.042226482 -0.06897975 0.014223764 0.015814995 0.00824589 0.041441873 -0.07002852
0.005591589 -0.056663122 0.0037015602 -0.0068013836 0.023999987 -0.024445333 -0.025175342 0.04227194
-0.027043195 -0.04094649 0.007964051 0.07981433 -0.020222807 0.010707321 -0.017325634 -0.04550222
-0.031811997 -0.016751401 -0.040099725 0.057398252 -0.03469091 -0.0020482908 -0.06976571 0.036181558
0.04703736 -0.03994126 0.034484334 0.04884187 -0.055344895 -0.064065546 -0.0075614234 -0.027689168
0.018843556 -0.040012646 0.068220295 -0.026421327 0.048488356 -0.07324639 0.01801721 0.057861533
0.010966757 0.008176867 -0.007370884 0.046864383 0.084786095 0.05334918 -0.025597375 -0.034430057
-0.01456664 0.01916873 -0.008531363 0.022114307 0.015648402 -0.009940592 0.081894204 -0.037930064
-0.045139804 -0.00895457 0.0036043318 0.037196923 -0.047162134 -0.00023546763 -0.042233508 0.08267687
0.059364595 0.059829194 -0.023895534 -0.04099928 0.022641327 0.060968615 -0.02555843 -0.031424526
-0.032603428 0.07847003 0.0016390816 0.002258061 -0.020101558 0.066542715 -0.0050266623 0.053455677
0.09710373 -0.047609787 -0.008160087 -0.066779345 0.029816762 -0.036220863 -0.019048044 0.013315984
-0.08837037 0.036599416 -0.0070289695 0.01671728 0.0084991325 -0.014750459 0.036662545 -0.028957935
0.033677816 0.035195217 0.10135046 0.0077282824 -0.10239192 -0.043088287 0.023599347 0.040212076
-0.051390853 -0.00017553494 -0.081602976 0.005148881 0.07966688 -0.11166421 0.063175835 -0.049462344
-0.05907029 -0.0035753073 -0.030660484 -0.014567994 -0.010129028 -0.010391144 0.07290353 0.04297575
-0.058556356 0.033527743 -0.018921219 -0.017113015 0.063874125 -0.064484775 -0.064127 -0.040159337
0.023323067 0.04356814 -0.089676514 -0.0692194 -0.07452923 -0.07768311 -0.09890143 -0.0018066417
00000000: 73fe 5bbd b6d7 81bc 3707 54bd bcac f9bc
00000010: 3969 9ebd 7671 543d be05 a5bc 67fa 8a3d
00000020: 0880 013d 6f63 a3bd 31e0 ac3d e694 babb
00000030: 4f98 453d a7e4 78bd cbc0 1f3d 7f9b 3fbd
00000040: 3570 acbc b2e5 3abd e09e 22bd c36e 05bd
00000050: fc31 95bd ab93 a93d eb82 98bd b864 f23c
00000060: 5a4d 7b3c 8587 ff3c ec4a 47bd 672f 0b3d
00000070: 3615 ff3c 3cb0 ef3b e0fb 263d fb55 53bc
00000080: 13bb 35bc 3e44 ed3c a69d 853c d021 ff3c
00000090: b6ba 1d3d eb69 733d b990 ce3c 7080 2c3d
000000a0: 44c9 00bc 4dc0 4cbd ee3a 85bd db6e 96bc
000000b0: 538a 273d e002 87bd 536e 1bbd b6ea 2a3d
000000c0: 2146 373a 3806 373d 61ba 863d 4f72 ae3b
000000d0: ac8a ee3c c855 0bbd 0f3d 863d e7a0 3d3d
000000e0: daca 623d ebb8 3c3d f8f4 233c ae58 443d
000000f0: fa63 743d 7dfa 803d 4eed 573c 5a40 573d
00000100: b21c 703d 83b2 8b3c 4333 09bd 5fa4 e7bc
00000110: c8dc c6bc 3192 a33d b3db 423d 36fb c0bc
00000120: c497 73bd 9c0d e4bb d7b0 68bd 9e8a eabc
00000130: 2c70 6c3b 1c4b 8cbd 5d77 5abd 6d88 4fbd
00000140: 901a 30bd ec1a 383d bd61 1a3d b246 5d3d
00000150: fbf3 21bd f8c1 1a3d 073d 9bbd fb5c 113d
00000160: 25d8 413d e4a8 af3b 9991 bdbc 05f1 a43d
00000170: 68d8 3e3d 7c18 363d 4eef d9bc ac08 dabc
00000180: a932 9eba 5b67 383c 0094 02bd 8b9f 123c
00000190: 48ff 15bd f4ad 04bd e657 5ebd a669 8cbc
000001a0: 84e5 f2bc 33ec d0bb 991a bd3c 2267 293d
000001b0: 9f50 a23c 6afb 10bd e971 5ebd 0858 36bd
000001c0: 069f bb3d adf5 2cbd 4145 8dbd ca0a 693c
000001d0: 738e 813c c519 073c f4be 293d 1d6b 8fbd
000001e0: a639 b73b 9717 68bd e095 723b 24de debb
000001f0: 9f9b c43c 9441 c8bc 853c cebc 5725 2d3d
00000200: b189 ddbc 82b7 27bd a77b 023c b275 a33d
00000210: 4daa a5bc c26d 2f3c 7dee 8dbc 8960 3abd
00000220: 4c4d 02bd 3c3a 89bc 9c3f 24bd 6e1a 6b3d
00000230: 0e18 0ebd 9e3c 06bb 53e1 8ebd 1d33 143d
00000240: 3faa 403d 7299 23bd 723f 0d3d 6a0e 483d
00000250: 54b1 62bd cc34 83bd d1c5 f7bb 65d4 e2bc
00000260: cd5d 9a3c 4de4 23bd 15b7 8b3d 8a71 d8bc
00000270: ba9b 463d 3402 96bd d498 933c 3700 6d3d
00000280: eaad 333c 44f8 053c 7587 f1bb def4 3f3d
00000290: 55a4 ad3d ab84 5a3d 96b1 d1bc 8806 0dbd
000002a0: eba8 6ebc be07 9d3c 21c7 0bbc 1029 b53c
000002b0: 1431 803c dddd 22bc 26b8 a73d 8e5c 1bbd
000002c0: 84e4 38bd 30b6 12bc a736 6c3b cd5b 183d
000002d0: 152d 41bd dce7 76b9 0bfd 2cbd 7e52 a93d
000002e0: 4a28 733d 750f 753d 91c0 c3bc dcee 27bd
000002f0: 4e7a b93c 3aba 793d ea5f d1bc 01b7 00bd
00000300: 2c8b 05bd e5b4 a03d 74d6 d63a fafb 133b
00000310: 06ac a4bc 8c47 883d b3b6 a4bb 57f4 5a3d
00000320: 52de c63d 7b02 43bd e3b1 05bc 9cc3 88bd
00000330: 4842 f43c 545c 14bd a50a 9cbc 492b 5a3c
00000340: 86fb b4bd 45e9 153d 4553 e6bb adf2 883c
00000350: f23f 0b3c e9ab 71bc 772b 163d 3139 edbc
00000360: c0f1 093d dc28 103d d490 cf3d 883d fd3b
00000370: dbb2 d1bd 587d 30bd 6b53 c13c 6bb5 243d
00000380: 377f 52bd cd0f 38b9 761f a7bd f2b7 a83b
00000390: 6428 a33d 35b0 e4bd 5562 813d 0799 4abd
000003a0: b0f3 71bd b44f 6abb b22b fbbc 98ae 6ebc
000003b0: 39f4 25bc 9e3f 2abc 724e 953d 5707 303d
000003c0: cad8 6fbd 6354 093d ac00 9bbc 9830 8cbc
000003d0: 70d0 823d 9810 84bd 0455 83bd 1e7e 24bd
000003e0: 0410 bf3c 8274 323d 52a8 b7bd e7c2 8dbd
000003f0: c8a2 98bd 5318 9fbd d58c cabd d6cc ecba

d1.4.bias f4 [68]
0.0031933228 0.029444443 0.038598873 -0.016072752 -0.01743678 0.016385874 -0.056836054 -0.069174185
0.005548755 0.08857177 0.06348783 0.07929911 0.024294205 -0.049134105 0.009609324 -0.072055325
0.029202824 0.06282004 -0.010916009 -0.07727877 0.07590311 0.042567454 0.012988065 -0.059927043
-0.054334234 0.0045800665 0.005960287 -0.012194742 0.031141406 0.07877185 0.0041200225 -0.044739492
-0.007919479 -0.0072600762 -0.07103434 0.07137399 0.011904584 -0.019645214 0.013980494 0.029679459
-0.024866559 -0.047430046 0.013916326 -0.03821713 -0.06716892 -0.032458868 -0.07536192 -0.0017521145
0.03447185 0.067724094 0.05314981 -0.009337497 -0.039540753 0.07894828 -0.0045609935 0.039456587
-0.061395418 0.054728627 -0.060852017 0.04871599 -0.016762054 0.03287816 0.064481385 -0.039846342
-0.0012089509 -0.02957517 0.06387752 0.055280395
00000000: 1147 513b 7935 f13c da19 1e3d 01ab 83bc
00000010: 94d7 8ebc ab3b 863c eccc 68bd 32ab 8dbd
00000020: 55d2 b53b 1e65 b53d e805 823d 9267 a23d
00000030: a404 c73c d840 49bd 6d70 1d3c be91 93bd
00000040: c33a ef3c cba7 803d 0fd9 32bc 5544 9ebd
00000050: 1773 9b3d 365b 2e3d e5cb 543c 0f76 75bd
00000060: 938d 5ebd 6214 963b 834e c33b 75cc 47bc
00000070: 431c ff3c 2353 a13d 4101 873b c240 37bd
00000080: b4c0 01bc efe5 edbb 747a 91bd 872c 923d
00000090: 720b 433c 00ef a0bc 710e 653c 5622 f33c
000000a0: f4b4 cbbc 0246 42bd 4d01 643c 9189 1cbd
000000b0: dc8f 89bd 97f3 04bd 5a57 9abd 35a7 e5ba
000000c0: 5b32 0d3d eeb2 8a3d 9db3 593d 4dfc 18bc
000000d0: 7cf5 21bd a3af a13d 6374 95bb 3b9d 213d
000000e0: c379 7bbd 202b 603d f73f 79bd 6b8a 473d
000000f0: 9350 89bc 40ab 063d d10e 843d eb35 23bd
00000100: a975 9eba a047 f2bc 38d2 823d b26d 623d

d1.6.weight f4 [221, 68]
-0.07944366 0.10929894 -0.03473455 -0.06575361 -0.049102757 -0.01636228 0.043119647 -0.030416992
0.021079678 0.037927743 -0.120999105 -0.09262686 0.12179196 0.055513617 0.048835468 -0.03713181
0.074516535 -0.01229506 -0.008787102 -0.05559224 0.01904081 0.13198155 -0.091603674 0.072630614
0.116828024 -0.02561535 0.045223534 -0.08294806 0.10208949 -0.09015065 0.016459743 -0.10609489
0.027442722 0.032930933 -0.077406935 -0.092918694 -0.04892868 -0.0020710619 0.105975084 0.025864027
-0.11324693 -0.020640405 0.013624246 -0.09933865 0.043247536 -0.08535614 -0.02189474 0.084542245
-0.03853967 -0.060571633 -0.10490537 0.018666262 0.08619664 -0.13482144 0.0044837594 -0.100120276
0.04378222 0.081755064 0.06152688 -0.016119994 -0.03881578 -0.0622557 0.042678427 -0.045737877
0.051154163 1.1126103e-06 0.0018786276 0.027035996 0.06268768 0.09515507 -0.025789062 -0.0043762843
-0.02562084 -0.108830355 -0.11840239 0.02364202 -0.048974596 0.10859522 -0.12934887 -0.04297303
-0.08212775 0.027687121 0.06820794 -0.013399792 0.085909665 0.08703046 0.058009375 0.09632417
0.0033991223 0.01419234 -0.08365206 0.083944716 -0.040072735 -0.090810224 0.052111298 0.013013469
0.1053604 0.08399581 -0.0880946 0.044581793 0.12090048 0.08942536 -0.11872737 -0.0884441
-0.07205755 -0.036180854 0.07994323 -0.13577111 0.012768485 0.094807826 0.012327815 -0.03978822
0.034345947 0.039430067 0.045669883 -0.117537566 -0.15803966 0.113445275 -0.18873353 0.06147433
0.02716434 -0.06757541 -0.016173774 0.06999921 0.06296364 0.12537946 0.08415211 0.039196268
-0.038166866 -0.0892464 0.03322398 -0.109046586 -0.0033295124 -0.023779344 -0.10142062 -0.036034662
-0.07979734 -0.057704255 0.028296122 -0.03484043 -0.019230353 -0.09775679 0.054909073 0.020756736
-0.021272697 0.012101936 0.13107699 0.09838723 -0.09128632 0.033590946 -0.021452589 0.023205219
0.11255919 -0.07111292 -0.009717946 -0.085989274 0.06977317 0.11989633 -0.054855276 0.091889754
-0.06404343 0.105175935 0.09951809 -0.09052104 0.0070817815 0.09993985 0.017803056 -0.07974425
-0.061965235 0.0545724 -0.07774856 -0.013619194 0.022440352 0.021408375 -0.06085228 0.06793529
-0.027392713 -0.09295214 -0.06422962 -0.024519704 0.0476848 -0.052256353 0.042105846 -0.08405814
0.073299035 0.08235119 0.08578543 0.054476015 -0.11908622 -0.011847666 0.021304065 0.07446079
0.09498824 -0.04684387 -0.016877387 -0.06507296 0.026830396 -0.055093687 -0.012582377 0.07602725
0.026214797 -0.078444175 -0.057358976 0.041350905 -0.108200856 -0.029298568 0.012511999 0.045836557
-0.0814461 -0.11789981 -0.06579961 -0.108536735 0.0023375289 -0.037549257 -0.025002364 0.010156229
0.0715098 -0.04681883 0.014206336 0.05265119 -0.09812692 0.03343262 -0.10191303 -0.09543876
-0.07614178 0.043451127 0.010431031 0.09111362 0.07740129 -0.00868805 -0.01377263 -0.02593353
0.09624383 -0.021023523 -0.027373377 0.12462042 -0.102221705 -0.12513232 0.06848347 0.080838166
-0.019179791 -0.096804686 -0.0042713135 -0.036277875 0.099567235 -0.014090752 0.0138047505 -0.06770014
0.01852663 0.086636126 0.024001868 0.07746115 0.04702013 -0.044892166 -0.0024569128 0.027608333
00000000: 5cb3 a2bd 1fd8 df3d d145 0ebd d4a9 86bd
00000010: f91f 49bd 300a 86bc 3a9e 303d 0e2d f9bc
00000020: 4aaf ac3c 1f5a 1b3d 61ce f7bd 27b3 bdbd
00000030: 106e f93d 3f62 633d b307 483d 8617 18bd
00000040: 209c 983d 3871 49bc c7f7 0fbc b0b4 63bd
00000050: 79fb 9b3c 2c26 073e b59a bbbd 5cbf 943d
00000060: 8843 ef3d 48d7 d1bc 503c 393d ace0 a9bd
00000070: 4b14 d13d e7a0 b8bd 95d6 863c 4748 d9bd
00000080: 8fcf e03c 96e2 063d 8787 9ebd 284c bebd
00000090: 7169 48bd a7ba 07bb 7709 d93d cce0 d33c
000000a0: 02ee e7bd 1116 a9bc 3b38 5f3c 1072 cbbd
000000b0: 5424 313d 33cf aebd 995c b3bc 7c24 ad3d
000000c0: c6db 1dbd f619 78bd a0d8 d6bd fde9 983c
000000d0: dd87 b03d a20e 0abe 80ec 923b dc0b cdbd
000000e0: fc54 333d 336f a73d 9c03 7c3d 140e 84bc
000000f0: 4cfd 1ebd d5ff 7ebd 93cf 2e3d a457 3bbd
00000100: 0787 513d 0055 9535 483c f63a 987a dd3c
00000110: 6662 803d a9e0 c23d 9543 d3bc ef66 8fbb
00000120: cce2 d1bc 73e2 debd f47c f2bd e9ac c13c
00000130: 9699 48bd 2c67 de3d 0874 04be 7d04 30bd
00000140: 9832 a8bd 1ad0 e23c 9bb0 8b3d cd8a 5bbc
00000150: 68f1 af3d 073d b23d 3d9b 6d3d 9b45 c53d
00000160: cfc3 5e3b fd86 683c c551 abbd 35eb ab3d
00000170: 4f23 24bd b6fa b9bd a872 553d 7236 553c
00000180: 32c7 d73d ff05 ac3d f16a b4bd 669b 363d
00000190: ac9a f73d a524 b73d 5627 f3bd 2e22 b5bd
000001a0: e992 93bd 6032 14bd 47b9 a33d 9507 0bbe
000001b0: e832 513c 9b2a c23d 9bfa 493c f9f8 22bd
000001c0: 56ae 0c3d 6c81 213d 5810 3b3d 89b7 f0bd
000001d0: 26d5 21be ff55 e83d 5d43 41be 82cc 7b3d
000001e0: c087 de3c fa64 8abd dd7e 84bc bf5b 8f3d
000001f0: 15f3 803d 7963 003e f157 ac3d 448c 203d
00000200: dc54 1cbd d1c6 b6bd de15 083d d153 dfbd
00000210: f333 5abb e6cc c2bc 9db5 cfbd 1599 13bd
00000220: ca6c a3bd 4c5b 6cbd 45cd e73c d7b4 0ebd
00000230: f988 9dbc b634 c8bd 56e8 603d 080a aa3c
00000240: 1444 aebc 3347 463c 0c39 063e 3e7f c93d
00000250: 52f4 babd a996 093d 57bd afbc df18 be3c
00000260: 6f85 e63d a7a3 91bd 0538 1fbc 251b b0bd
00000270: 3ce5 8e3d 358c f53d edaf 60bd b230 bc3d
00000280: 3429 83bd 7b66 d73d 24d0 cb3d 1863 b9bd
00000290: 4a0e e83b 44ad cc3d b7d7 913c f450 a3bd
000002a0: 42cf 7dbd 4f87 5f3d a33a 9fbd 0a23 5fbc
000002b0: d4d4 b73c 9e60 af3c 3e40 79bd a821 8b3d
000002c0: af66 e0bc b15d bebd d28a 83bd 8cdd c8bc
000002d0: 2351 433d c20a 56bd 2e77 2c3d ad26 acbd
000002e0: ce1d 963d bea7 a83d 46b0 af3d 3e22 5f3d
000002f0: 7ae3 f3bd b71c 42bc dd85 ae3c e67e 983d
00000300: 3289 c23d 5cdf 3fbd 7242 8abc f944 85bd
00000310: 6bcb db3c eba9 61bd 5026 4ebc 2db4 9b3d
00000320: 6ac0 d63c 57a7 a0bd 3ff1 6abd 915f 293d
00000330: 6998 ddbd 8d03 f0bc 21ff 4c3c 1dbf 3b3d
00000340: 36cd a6bd 7575 f1bd f2c1 86bd 8248 debd
00000350: 3a31 193b 40cd 19bd c2d1 ccbc 5066 263c
00000360: bb73 923d 1ac5 3fbd b1c1 683c c6a8 573d
00000370: c4f6 c8bd a5f0 083d c7b7 d0bd 6675 c3bd
00000380: 39f0 9bbd cff9 313d eae6 2a3c c799 ba3d
00000390: 9184 9e3d 5358 0ebc 99a6 61bc 8e72 d4bc
000003a0: 7c1b c53d 8639 acbc 223e e0bc fe38 ff3d
000003b0: 9d59 d1bd b022 00be 1041 8c3d 7b8e a53d
000003c0: f01e 9dbc 8941 c6bd 60f6 8bbb 1c98 14bd
000003d0: e8e9 cb3d e6dc 66bc 522d 623c 5fa6 8abd
000003e0: 29c5 973c 486e b13d 919f c43c f4a3 9e3d
000003f0: 2e98 403d d9e0 37bd 2804 21bb df2a e23c

d1.6.bias f4 [221]
-0.07338672 -0.10867002 -0.011736005 -0.022646474 -0.13411345 -0.1264381 -0.035878513 -0.13788462
0.018876722 -0.12674269 -0.16261776 -0.14826205 -0.14614107 -0.09579037 -0.047208875 0.077503145
0.06798952 0.050039686 -0.17229705 0.08616539 0.02598385 -0.0067904345 -0.06618412 0.02191431
0.042492896 -0.011540242 -0.09891908 -0.045196764 -0.12252569 0.031706512 -0.01014028 0.059694283
0.011610486 0.0044782776 0.07221636 -0.02433832 -0.02670081 -0.13157968 0.02453038 -0.0037318696
-0.13896161 -0.10260037 -0.11214746 0.023233566 -0.011731329 -0.09439366 0.031471938 -0.11997059
-0.13434643 -0.10087548 0.03718511 -0.017283417 -0.0024245556 -0.116043 -0.121199764 -0.1364212
-0.094886236 -0.025529623 0.07468338 0.0068412754 0.10313845 -0.080417834 0.007647115 -0.067318186
-0.10639766 -0.12814827 -0.17266858 0.02212809 0.03887278 -0.14338979 0.061896052 -0.0013947512
0.077587575 0.05492709 -0.05863065 -0.07314461 -0.013004344 0.045023125 -0.13942498 -0.1322337
0.09674207 -0.0030250323 -0.08600774 0.073097065 -0.11182244 -0.108915076 0.08484782 -0.015611543
0.048666574 0.04887222 -0.09102205 -0.06090175 -0.10217702 -0.06488592 -0.024790108 -0.11387985
-0.11356624 0.0057785455 0.03669051 -0.13210501 -0.03776234 -0.09983336 0.09018249 0.004466716
-0.18395935 -0.048540134 -0.04018757 -0.0869118 -0.13231175 -0.06817408 -0.102995396 0.09179767
0.055067573 0.03696128 0.079245746 -0.12739387 -0.04070534 -0.005807602 0.057458818 0.0464729
-0.039261896 -0.17022488 -0.073649056 0.074680224 -0.03958263 -0.013391228 -0.085020564 -0.022220112
0.035093304 -0.16246127 -0.12701623 0.03183318 -0.008559133 -0.15483302 0.014589479 -0.093625754
0.03291413 -0.05355475 -0.15002252 -0.082316585 -0.13164532 -0.092573695 -0.026834227 -0.064162
-0.098877266 0.053783964 0.081160255 -0.10396505 -0.12491614 0.08655932 0.015843578 0.0025714305
-0.20406525 -0.034016974 0.017227342 -0.07745805 -0.08482296 0.11739614 -0.14724603 -0.115718074
-0.1565338 0.018756496 -0.014344436 0.053201433 -0.019992292 0.06128869 -0.05455885 -0.12017369
-0.15834077 -0.07916086 -0.091089815 0.050783888 -0.075091965 0.034595203 0.0485073 -0.12921175
0.023306988 -0.040527042 -0.105161354 -0.053161863 -0.11497032 -0.02701897 -0.08572857 -0.016706647
-0.0997593 0.0037951586 -0.104171745 0.10580217 0.026473744 -0.10193036 -0.0857811 0.1043972
-0.09323404 0.060926896 0.036874514 -0.011266428 0.06410894 -0.09774137 0.08976458 0.027212864
0.042714473 -0.06342503 -0.10025186 -0.105207734 -0.017113436 0.083392404 -0.073779754 0.097589605
0.048361547 -0.02200044 -0.06900855 -0.1178257 -0.17072856 -0.061873205 -0.0344506 0.036093347
0.027752127 -0.04550424 -0.14127253 0.011204818 0.013759155
00000000: c74b 96bd 638e debd 5f48 40bc 1985 b9bc
00000010: 0955 09be fd78 01be 59f5 12bd a031 0dbe
00000020: 5ba3 9a3c d6c8 01be 4585 26be 02d2 17be
00000030: 01a6 15be be2d c4bd 185e 41bd f8b9 9e3d
00000040: 173e 8b3d 6af6 4c3d a36e 30be 7b77 b03d
00000050: 15dc d43c 4b82 debb 8a8b 87bd a485 b33c
00000060: 080d 2e3d 4813 3dbc 1696 cabd 3e20 39bd
00000070: c0ee fabd b0de 013d 6b23 26bc fe81 743d
00000080: e839 3e3c 84be 923b 2ce6 933d 2861 c7bc
00000090: a8bb dabc d3bc 06be eff3 c83c 6292 74bb
000000a0: f44b 0ebe 2520 d2bd 91ad e5bd 5254 be3c
000000b0: c334 40bc 7751 c1bd b8e8 003d 24b3 f5bd
000000c0: 1c92 09be ce97 cebd 6a4f 183d f495 8dbc
000000d0: 4be5 1ebb f4a7 edbd 9537 f8bd 00b2 0bbe
000000e0: b753 c2bd 8023 d1bc 9af3 983d c72c e03b
000000f0: 403a d33d 1bb2 a4bd a694 fa3b 1ede 89bd
00000100: 04e7 d9bd 4d39 03be 08d0 30be f845 b53c
00000110: 1039 1f3d c6d4 12be b786 7d3d 16d0 b6ba
00000120: 3ce6 9e3d 3afb 603d b126 70bd d7cc 95bd
00000130: 2c10 55bc 2b6a 383d 6cc5 0ebe 4568 07be
00000140: b520 c63d 9f3f 46bb d324 b0bd eab3 953d
00000150: 2a03 e5bd de0e dfbd b2c4 ad3d 8fc7 7fbc
00000160: 9a56 473d 3d2e 483d c569 babd 1d74 79bd
00000170: 2f42 d1bd e9e2 84bd a014 cbbc d739 e9bd
00000180: 6b95 e8bd f459 bd3b ca48 163d 8946 07be
00000190: afac 1abd 6f75 ccbd 99b1 b83d 885d 923b
000001a0: d75f 3cbe 05d2 46bd b99b 24bd d0fe b1bd
000001b0: bb7c 07be da9e 8bbd 40ef d2bd 6b00 bc3d
000001c0: 898e 613d b664 173d 984b a23d 8a73 02be
000001d0: a5ba 26bd b24d bebb f059 6b3d 5e5a 3e3d
000001e0: 15d1 20bd 6e4f 2ebe 51d5 96bd f2f1 983d
000001f0: 6521 22bd e266 5bbc 431f aebd f406 b6bc
00000200: ffbd 0f3d 3f5c 26be 8b10 02be 8263 023d
00000210: 9b3b 0cbc 8c8c 1ebe b608 6f3c dcbe bfbd
00000220: f7d0 063d 3a5c 5bbd 819f 19be 9995 a8bd
00000230: 08ce 06be 4797 bdbd 74d3 dbbc 5e67 83bd
00000240: 2a80 cabd 934c 5c3d 5937 a63d a1eb d4bd
00000250: 09d4 ffbd 0346 b13d 64ca 813c 7285 283b
00000260: 7bf6 50be 6255 0bbd 5b20 8d3c 53a2 9ebd
00000270: a9b7 adbd 636d f03d aac7 16be 99fd ecbd
00000280: 654a 20be 39a7 993c ed04 6bbc bfe9 593d
00000290: e0c6 a3bc d909 7b3d 1a79 5fbd a01d f6bd
000002a0: 1524 22be 171f a2bd 4c8d babd c402 503d
000002b0: d1c9 99bd b3b3 0d3d 97af 463d 1650 04be
000002c0: 4cee be3c afff 25bd d65e d7bd 41c0 59bd
000002d0: 8f75 ebbd e356 ddbc 7692 afbd 61dc 88bc
000002e0: 9b4e ccbd 32b8 783b ff57 d5bd cfae d83d
000002f0: 77df d83c ddc0 d0bd 00ae afbd 33ce d53d
00000300: 7df1 bebd 7b8e 793d bb09 173d d396 38bc
00000310: 8c4b 833d a12c c8bd 7ed6 b73d 83ed de3c
00000320: 5ff5 2e3d fbe4 81bd d950 cdbd 2777 d7bd
00000330: 7a31 8cbc a3c9 aa3d d719 97bd 0fdd c73d
00000340: c216 463d 443a b4bc 5b54 8dbd 9a4e f1bd
00000350: 78d3 2ebe c26e 7dbd 131c 0dbd 9ed6 133d
00000360: 6e58 e33c a762 3abd bfa9 10be 6a94 373c
00000370: 146e 613c

d1.8.weight f4 [9, 221]
0.14746606 0.055443864 0.09504237 0.1938894 0.09160227 0.08682094 0.058179215 0.18087319
0.103815414 0.0840314 0.17669769 0.104327366 0.115954064 0.08780266 0.06490082 0.085414514
0.05274584 0.13705623 0.066656455 0.060970586 0.103614286 0.073882766 0.11995286 0.1895705
0.18051222 0.15514748 0.056904823 0.072567254 0.11975575 0.17250983 0.07945482 0.073524095
0.14081247 0.05888137 0.17838883 0.14621602 0.18071142 0.15908329 0.0692338 0.15636031
0.14227122 0.09420753 0.124908715 0.06052057 0.11716855 0.12054442 0.06483091 0.06846728
0.07126893 0.09122074 0.13108945 0.18291514 0.14037251 0.15802713 0.07131635 0.086652495
0.13499083 0.1910034 0.12043528 0.11412367 0.10738228 0.1422409 0.12889206 0.09915587
0.10538831 0.12397166 0.058219563 0.1205463 0.16138457 0.1734916 0.16059288 0.16749838
0.068571225 0.12560157 0.17033766 0.15510379 0.10848255 0.17439969 0.09086195 0.16681701
0.03824844 0.14844416 0.07274465 0.06937584 0.07356941 0.07440829 0.12245977 0.08213306
0.14032593 0.15183173 0.059350584 0.108134225 0.132888 0.17123537 0.09382717 0.06376751
0.17124869 0.14398372 0.10879075 0.12217975 0.13496627 0.1407698 0.08685084 0.11967842
0.04700125 0.14578485 0.071113706 0.09631662 0.06723437 0.080532834 0.15004897 0.17801753
0.10574169 0.17399342 0.12774725 0.059999663 0.17593624 0.07422476 0.15018135 0.18286365
0.114877984 0.1471889 0.13263434 0.15409413 0.17640914 0.13637778 0.100768164 0.107119784
0.09844411 0.104047105 0.13831861 0.13084137 0.047679365 0.07041559 0.16865805 0.120621234
0.08036039 0.13002275 0.08146914 0.09870793 0.085884206 0.09698396 0.07583438 0.15772234
0.064035356 0.17323045 0.060519796 0.076708 0.08067881 0.11857625 0.16092291 0.16614498
0.10115312 0.0709886 0.06790952 0.1257939 0.13818492 0.10441518 0.12805499 0.16367066
0.099019974 0.077982664 0.12655595 0.11139439 0.13344344 0.053021934 0.17048876 0.1722987
0.1151292 0.16614982 0.17209361 0.09817388 0.2002662 0.12579048 0.06161645 0.17975087
0.15212333 0.13215417 0.18048719 0.09487345 0.06674126 0.1252234 0.092915766 0.08785378
0.11945368 0.14789273 0.06083123 0.16466829 0.08087844 0.11865508 0.1183405 0.09837598
0.103081666 0.15800206 0.06374472 0.09080192 0.12649986 0.066205196 0.15363619 0.037521247
0.17467183 0.106584825 0.14748757 0.17445803 0.06243451 0.07881765 0.06152422 0.10243745
0.07688873 0.14705104 0.043007288 0.11734427 0.06605523 0.1453186 0.10660818 0.19006665
0.104425386 0.07446628 0.17394045 0.15360285 0.12746981 0.1341494 0.11694944 0.100400805
0.059121866 0.07286651 0.0974067 0.08392089 0.09010405 0.10299714 0.13813546 0.1303745
0.06366365 0.03102753 0.10544374 0.055831917 0.0670527 0.040537983 0.09470999 0.056046374
0.057164952 0.09727465 0.10018284 0.12363517 0.11715478 0.06709869 0.11290543 0.040019866
0.124860875 0.107147515 0.1160699 0.051876046 0.12501848 0.041607838 0.111173525 0.07382937
00000000: 5801 173e 1b19 633d 93a5 c23d f18a 463e
00000010: f999 bb3d 2dcf b13d 544d 6e3d d236 393e
00000020: 2d9d d43d a818 ac3d 3df0 343e 96a9 d53d
00000030: 5379 ed3d e2d1 b33d b9ea 843d ceed ae3d
00000040: 060c 583d 7858 0c3e 2e83 883d 4bbc 793d
00000050: ba33 d43d d94f 973d d8a9 f53d c51e 423e
00000060: 32d8 383e fbde 1e3e 0815 693d 249e 943d
00000070: 8142 f53d 6ba6 303e 35b9 a23d cd93 963d
00000080: 2531 103e 972d 713d 90ab 363e a7b9 153e
00000090: 6a0c 393e bbe6 223e 73ca 8d3d eb1c 203e
000000a0: 8caf 113e e1ef c03d 24d0 ff3d 6be4 773d
000000b0: 11f6 ef3d fedf f63d 11c6 843d 9338 8c3d
000000c0: 72f5 913d f0d1 ba3d 503c 063e 1b4e 3b3e
000000d0: d0bd 0f3e ddd1 213e 4e0e 923d dd76 b13d
000000e0: 093b 0a3e 6596 433e c6a6 f63d acb9 e93d
000000f0: 3eeb db3d 99a7 113e 48fc 033e 3c12 cb3d
00000100: d4d5 d73d dbe4 fd3d a377 6e3d fbe0 f63d
00000110: ff41 253e c8a7 313e 7672 243e b284 2b3e
00000120: 126f 8c3d b39d 003e ff6c 2e3e 87d3 1e3e
00000130: 192c de3d d595 323e d415 ba3d 14d2 2a3e
00000140: 65aa 1c3d bf01 183e 26fb 943d ec14 8e3d
00000150: 8fab 963d 6063 983d 30cc fa3d 6135 a83d
00000160: 9ab1 0f3e c779 1b3e 9919 733d 7a75 dd3d
00000170: cb13 083e 5358 2f3e 7628 c03d 8a98 823d
00000180: d15b 2f3e 7870 133e afcd de3d 6039 fa3d
00000190: 9934 0a3e f525 103e dade b13d f619 f53d
000001a0: 6284 403d a048 153e 10a4 913d a641 c53d
000001b0: 2cb2 893d 66ee a43d 70a6 193e 3a4a 363e
000001c0: 198f d83d 552b 323e 2dd0 023e 35c2 753d
000001d0: a128 343e 2703 983d 24c9 193e 9c40 3b3e
000001e0: 2645 eb3d b0b8 163e 4cd1 073e daca 1d3e
000001f0: 99a4 343e 9ea6 0b3e 8a5f ce3d 9e61 db3d
00000200: 119d c93d a616 d53d 65a3 0d3e 48fb 053e
00000210: 704b 433d 0d36 903d b2b4 2c3e 4408 f73d
00000220: fd93 a43d af24 053e 4bd9 a63d 6227 ca3d
00000230: 0fe4 af3d 879f c63d 0e4f 9b3d f781 213e
00000240: f824 833d 5363 313e 9be3 773d 1519 9d3d
00000250: ef3a a53d 1bd8 f23d fac8 243e e921 2a3e
00000260: 5e29 cf3d 7962 913d 2514 8b3d 1ed0 003e
00000270: 5980 0d3e a0d7 d53d d920 033e 4899 273e
00000280: fcca ca3d 60b5 9f3d e297 013e be22 e43d
00000290: 66a5 083e 872d 593d 9b94 2e3e 126f 303e
000002a0: dcc8 eb3d 2e23 2a3e 4f39 303e 630f c93d
000002b0: 9512 4d3e 38cf 003e 8861 7c3d 9d10 383e
000002c0: 38c6 1b3e 6c53 073e a2d1 383e 034d c23d
000002d0: a4af 883d 903a 003e 9f4a be3d afec b33d
000002e0: 22a4 f43d 3171 173e 2b2a 793d ce9e 283e
000002f0: 98a3 a53d 6f01 f33d 815c f23d 5979 c93d
00000300: 7b1c d33d 4bcb 213e 978c 823d 5bf6 b93d
00000310: 2e89 013e 9796 873d ce52 1d3e e1af 193d
00000320: 2cdd 323e 2549 da3d fb06 173e 20a5 323e
00000330: 54bb 7f3d 266b a13d d200 7c3d baca d13d
00000340: d777 9d3d 8c94 163e 6928 303d 3152 f03d
00000350: f747 873d 66ce 143e 6455 da3d d5a0 423e
00000360: fadc d53d c781 983d 721d 323e 114a 1d3e
00000370: 7287 023e 765e 093e 3083 ef3d f09e cd3d
00000380: c529 723d 093b 953d 2a7d c73d b7de ab3d
00000390: 7988 b83d 2af0 d23d 6273 0d3e e580 053e
000003a0: 1662 823d 722d fe3c e3f2 d73d 02b0 643d
000003b0: ed52 893d 280b 263d 50f7 c13d e290 653d
000003c0: cc25 6a3d ef37 c73d a92c cd3d 7034 fd3d
000003d0: d8ee ef3d 0a6b 893d f63a e73d dfeb 233d
000003e0: 0fb7 ff3d 2870 db3d 0eb6 ed3d fa7b 543d
000003f0: d804 003e fb6c 2a3d f2ae e33d da33 973d

d1.8.bias f4 [9]
0.124283046 0.18809873 0.35360673 0.06724881 0.07032645 0.3222955 -0.0453129 0.5623052
0.09769507
00000000: 1c88 fe3d f49c 403e f10b b53e beb9 893d
00000010: 5007 903d ea03 a53e 059a 39bd 3cf3 0f3f
00000020: 5a14 c83d
